Others/gpt-model.pt (torch, 945093 bytes, 110 tensors)

token_embedding_table.weight f4 [65, 64]
0	0x3e84943f	0.25894353
1	0x3dbc9395	0.092078365
2	0xbece3d2a	-0.4028104
3	0xbf49fb0c	-0.7889869
4	0x3eb7d03e	0.35901064
5	0xbd3418b7	-0.043968882
6	0x3f4b1a12	0.79336655
7	0x3e3bf706	0.1835595
8	0x3f0ebe78	0.5575938
9	0x3f8a9031	1.0825254
10	0xbfab12e7	-1.3365144
11	0xbe91469c	-0.28374183
12	0x3e599d17	0.21251331
13	0xbda8732c	-0.08225092
14	0xbf430763	-0.76183146
15	0x3fa3ee52	1.2807105
16	0x3fa35184	1.2759252
17	0xbe740e6a	-0.23833624
18	0x3ee76b4c	0.4519905
19	0x3f937e38	1.1522894
20	0xbffae5f1	-1.9601423
21	0x3f02fc0b	0.5116584
22	0x3fbdceba	1.4828713
23	0x3f1a9e9d	0.60398275
24	0x3e161481	0.14656259
25	0xbfdbd9fe	-1.7175901
26	0xbf96e42b	-1.1788381
27	0xbf13597a	-0.57558405
28	0x3eafc6a1	0.3433123
29	0xbf69273c	-0.9107549
30	0x3fc422b3	1.5323089
31	0x4028629a	2.6310182
32	0xbee799e9	-0.45234612
33	0xbe7f8f84	-0.2495709
34	0x3f93d3f6	1.154906
35	0x3e6cc66a	0.23122564
36	0xbd89f2e3	-0.0673578
37	0x3f76db87	0.9642872
38	0xbf7e1691	-0.99253184
39	0xbe7beada	-0.24601308
40	0xbea2758d	-0.3173031
41	0xbf4fb42f	-0.81134313
42	0x3e9a80a4	0.3017627
43	0xbfd65571	-1.6744825
44	0xbf9a601c	-1.206058
45	0x3f37bbbd	0.7177084
46	0xbf3f3cdb	-0.74702233
47	0xbf2231a6	-0.6335701
48	0x3fd66ee3	1.675259
49	0xbf434a8f	-0.7628564
50	0x3fa79fb4	1.3095613
51	0xbec8a757	-0.3919017
52	0xbfbf104e	-1.4926851
53	0x40106630	2.256237
54	0x4022ea20	2.5455399
55	0xbfcb704c	-1.5893645
56	0x3fca1b94	1.5789666
57	0xbfc49f66	-1.5361145
58	0x3f000912	0.5001384
59	0xbe391fa0	-0.1807847
60	0x3f3ea567	0.74471134
61	0x3fb6d8ae	1.4284875
62	0x3fce3c05	1.6112067
63	0xbf305d69	-0.6889253
64	0xbf4d3a01	-0.8016663
65	0x3f105add	0.56388646
66	0xbd95b196	-0.073092625
67	0xbd8365fa	-0.06415935
68	0xbf083eba	-0.53220713
69	0x3eed5d2c	0.46360147
70	0xbe209207	-0.15680705
71	0xbf74cbd1	-0.956235
72	0x4007ee84	2.1239328
73	0xbf15a433	-0.58453673
74	0x3e718202	0.2358475
75	0x3f2cef1c	0.6755235
76	0xbfba0d1d	-1.4535252
77	0x3f63d50d	0.88996965
78	0x3e0d5aa2	0.13804105
79	0x3e013a21	0.1261983
80	0x40190835	2.391126
81	0xbf93ff40	-1.1562271
82	0x3f7e99d9	0.994535
83	0x3f27816e	0.6543187
84	0xbfd1e344	-1.6397481
85	0xbf9df700	-1.2341003
86	0x3f4e6ab4	0.80631566
87	0xbe076643	-0.13222603
88	0x3eb7a724	0.35869706
89	0xbecfc90a	-0.40583068
90	0x3f0e9afd	0.55705243
91	0xbf3cda66	-0.7377075
92	0xbeb924d9	-0.36160925
93	0xbee579cc	-0.44819486
94	0xbf815acd	-1.0105835
95	0xbe68874b	-0.2270786
96	0xbfc80248	-1.5625696
97	0xbfb0027f	-1.3750762
98	0xbe6c8f79	-0.23101605
99	0x3f6ce98d	0.9254387
100	0x3de704c6	0.11280207
101	0xbf136e02	-0.57589734
102	0xbe62774d	-0.22115822
103	0x3cc82bf7	0.024435027
104	0xbe420523	-0.18947272
105	0xbe4da973	-0.20084171
106	0x3e73bda8	0.23802817
107	0x3fa13217	1.2593411
108	0x3e25152e	0.1612136
109	0x401fb066	2.4951415
110	0xbf24079a	-0.640741
111	0xc003371c	-2.0502386
112	0xbeb450e0	-0.35217953
113	0xbe172378	-0.14759624
114	0x3f6cc65b	0.92490166
115	0xbff82f0b	-1.9389356
116	0x3e2c368e	0.16817686
117	0x3eec00e8	0.4609444
118	0xbfd677c2	-1.6755297
119	0x3f2e4f4a	0.68089736
120	0x3fd919f3	1.6961044
121	0x3ea81e47	0.328356
122	0x3e70786e	0.2348344
123	0xbf0db06a	-0.5534731
124	0xbf4f9d67	-0.8109955
125	0x3ed63cb1	0.4184318
126	0xbf13f163	-0.577902
127	0xbfca191a	-1.578891
128	0xbfbb72a5	-1.4644362
129	0x4004c1bf	2.0743253
130	0x3fb70f3a	1.4301522
131	0xbf3984ae	-0.7246808
132	0x3fba6be1	1.4564172
133	0x3fa1dadf	1.2644919
134	0xbedf7719	-0.43645552
135	0xbfa95bdf	-1.3231162
136	0x3994e9b6	0.00028402888
137	0x3d27193a	0.040795542
138	0x3f4d2459	0.8013359
139	0x3ed0ab42	0.4075566
140	0x3edef597	0.43546745
141	0xbf891ad6	-1.0711315
142	0x3f042d36	0.51631486
143	0x3f81a60c	1.0128798
144	0x4010f556	2.264974
145	0x3f28a01c	0.6586931
146	0xbfbf12b3	-1.4927582
147	0xbec56651	-0.38554624
148	0x3e88999c	0.26679695
149	0xbe7d4177	-0.24732004
150	0xbf4f2c50	-0.8092699
151	0x3fae835e	1.363384
152	0xbf1a5fcf	-0.6030244
153	0x3d6d2b80	0.057902813
154	0x3f6a0393	0.91411704
155	0xbec70bb9	-0.3887613
156	0xbf91ddef	-1.1395854
157	0xbf1901fe	-0.59768665
158	0x3fb8e358	1.444438
159	0xbebf4743	-0.37359056
160	0xbf412446	-0.75445974
161	0x3e9fb957	0.3119609
162	0xbeeae647	-0.45878813
163	0x3ff97cfb	1.9491266
164	0xc018105f	-2.3759992
165	0x3e8cc617	0.2749488
166	0xbf65af7e	-0.89720905
167	0xbe0bf65c	-0.13668197
168	0x3e75efc6	0.24017248
169	0x3fb46b47	1.4095238
170	0x3e7c5bf6	0.24644455
171	0xbe8e31da	-0.2777241
172	0xbfb1c44e	-1.3888032
173	0xbe96d6e7	-0.29460832
174	0xbff383db	-1.9024614
175	0xbfb364b7	-1.4015111
176	0xbe3cfd67	-0.1845604
177	0xbf803733	-1.0016845
178	0x3ee8ea65	0.4549133
179	0x3e5fcb37	0.21854864
180	0x3f5caade	0.8619822
181	0x3f966a64	1.1751218
182	0xbfe3cf3f	-1.7797621
183	0x3fb7ec19	1.4368926
184	0x3f9e86d3	1.2384895
185	0x3f4a16c9	0.7894102
186	0x3f2816c1	0.6565972
187	0xbfb4426b	-1.4082769
188	0xbf2127d5	-0.62951404
189	0x3fce553a	1.6119759
190	0x3f183da6	0.5946907
191	0x3fa7828f	1.3086718
192	0x3db376e9	0.08762915
193	0xbed515c4	-0.41618168
194	0x3fd25ba0	1.6434212
195	0x3fb011c3	1.375542
196	0x3f81b083	1.0131992
197	0xbf04ce91	-0.51877695
198	0xbeb14d7e	-0.34629434
199	0x3ee8a119	0.45435408
200	0xbd8d988a	-0.0691386
201	0xbfc7daff	-1.5613707
202	0x3f803d2f	1.0018672
203	0x3f16389d	0.58680135
204	0xbf991c97	-1.196185
205	0xbf6b6693	-0.9195339
206	0xbbfa7c58	-0.0076442175
207	0x3e2c18ba	0.16806307
208	0x3eb25659	0.34831503
209	0xbf2ebf60	-0.68260765
210	0xbea236c7	-0.31682417
211	0xbefafc83	-0.49020776
212	0x3f0bf175	0.5466531
213	0x3f1a36ac	0.6023967
214	0x3f90bd89	1.1307842
215	0x3f2b1623	0.6683065
216	0x3ee2696a	0.4422105
217	0x3f667cff	0.9003448
218	0xbe8dc614	-0.27690184
219	0xbf46e167	-0.77687687
220	0xbeed2e27	-0.46324274
221	0x3ee31842	0.44354445
222	0xbf0310f5	-0.5119775
223	0xbed8d30f	-0.42348525
224	0xbf1ae24e	-0.60501564
225	0xbe8e4f21	-0.27794746
226	0x3dd094c2	0.10184623
227	0xbead649f	-0.3386583
228	0xbd9b5c05	-0.07585911
229	0x3f5638cc	0.83680415
230	0x38e4ac64	0.000109039975
231	0xbec4db1e	-0.38448423
232	0x3f4466b5	0.7671922
233	0xbfae4d5d	-1.3617359
234	0x3f12b9a2	0.57314503
235	0xbfd74dd9	-1.6820632
236	0xbf589cb4	-0.8461411
237	0x3d757279	0.059923623
238	0xbec8283c	-0.39093196
239	0xbeb10d51	-0.34580472
240	0x3fb50d39	1.414466
241	0x3d128480	0.035770893
242	0xbf5533e7	-0.8328232
243	0xbf818b23	-1.0120586
244	0x3ed409a7	0.41413614
245	0xbeb64d1a	-0.356057
246	0x3d9e9d6c	0.077448696
247	0xbf6e2e87	-0.93039745
248	0xbeb931a5	-0.36170688
249	0x3e862210	0.26197863
250	0xbf5743d4	-0.8408787
251	0xbf8c70a5	-1.0971876
252	0x3f8b761c	1.0895419
253	0xbfe6cfd9	-1.803218
254	0xbed90748	-0.42388368
255	0x3f828605	1.019715

position_embedding_table.weight f4 [32, 64]
0	0xbfa71468	-1.3053102
1	0xbea8b4c2	-0.32950407
2	0xc012804b	-2.2890804
3	0xbfbce199	-1.4756347
4	0xbed3425b	-0.41261563
5	0xbdfa18d3	-0.12211766
6	0x3f46fd67	0.7773041
7	0x3e8b2089	0.2717326
8	0xbfa60743	-1.2970966
9	0xbe81380f	-0.25238082
10	0x3eecd35f	0.46255013
11	0x3f560ab9	0.8361011
12	0x3eda25be	0.4260692
13	0xbfad8790	-1.3556995
14	0xbf431cc8	-0.7621579
15	0x3fc64322	1.5489237
16	0x3f37c0ae	0.7177838
17	0xbf7dd51d	-0.9915331
18	0xbdf003f1	-0.11719502
19	0x3d572c07	0.052532222
20	0xc021c222	-2.527474
21	0x3f2e408a	0.6806723
22	0xbf5e1304	-0.86747766
23	0xbe470b48	-0.19437897
24	0x4005579d	2.0834725
25	0x3f1c052e	0.60945404
26	0xbffc214a	-1.9697659
27	0xbe9cdee2	-0.30638796
28	0x400b31ca	2.174914
29	0xbf524298	-0.82132864
30	0x3eab4751	0.33452848
31	0xbf3424e7	-0.7036881
32	0xbf7617a5	-0.9612983
33	0xbe8ab0bf	-0.27087972
34	0xbe27ede1	-0.16399337
35	0x3f612be3	0.8795759
36	0x3f34f93d	0.7069281
37	0x3f815c5c	1.0106311
38	0xbf9a3992	-1.2048819
39	0xbf3b022c	-0.7305019
40	0x3ea09ff3	0.31372032
41	0xbf963390	-1.1734486
42	0x3f564413	0.83697623
43	0x3fac93b0	1.3482571
44	0xbf03b835	-0.5145295
45	0xbed13c36	-0.4086625
46	0xbef7eca3	-0.48422727
47	0xbfb8f6e7	-1.4450349
48	0xbeafa8e5	-0.34308544
49	0xbdbb66e0	-0.09150481
50	0x3f3e9da9	0.7445932
51	0xbf3495fd	-0.70541364
52	0xbf22cea9	-0.6359659
53	0xbf51b4ce	-0.8191651
54	0x3f46dc5b	0.77679986
55	0xbf28acc6	-0.6588863
56	0xbd1ff899	-0.03905544
57	0xbf0bb85b	-0.5457818
58	0x3ff120c8	1.8838129
59	0xbeed776b	-0.4638017
60	0xbf47a906	-0.77992284
61	0x3f14d73c	0.5814092
62	0x3feb785e	1.8396108
63	0x3f979637	1.1842717
64	0xbe3b81ca	-0.1831123
65	0x3fb0c53d	1.3810192
66	0x3e9904de	0.29886526
67	0x3f521eac	0.8207805
68	0xbf095064	-0.5363829
69	0x3fcb08c0	1.5862045
70	0xbe5021da	-0.20325413
71	0x3cd6db88	0.026227728
72	0xbf074aab	-0.5284831
73	0xbf4917ae	-0.7855176
74	0x3e9dd862	0.3082915
75	0xbe8850b5	-0.26624075
76	0xbf50fea5	-0.81638557
77	0xbf6bc6d5	-0.9210027
78	0xbf206ed6	-0.6266912
79	0x3f8cf3b3	1.1011871
80	0xbd87d26a	-0.0663193
81	0x3f2c2513	0.6724407
82	0xbd2f1298	-0.04274234
83	0x3f075898	0.5286956
84	0x3f049b68	0.5179963
85	0x3f1ce2bd	0.61283475
86	0xbf8296cf	-1.0202273
87	0xbf421973	-0.7582008
88	0xbec97579	-0.39347437
89	0xbf402c56	-0.7506765
90	0xbe037083	-0.12835889
91	0xbc77f743	-0.015134635
92	0x4018b949	2.386309
93	0x3f6f9586	0.9358753
94	0xbea32b7a	-0.31869107
95	0x3f585d65	0.8451751
96	0xbeb22c47	-0.34799406
97	0xbd768cf6	-0.060193025
98	0xbd4a5e93	-0.0494066
99	0xbf04dae9	-0.5189653
100	0x3f687849	0.9080854
101	0x3e8c454d	0.27396622
102	0x3f61116a	0.87917197
103	0xbef592f3	-0.47963676
104	0xbf8b28ae	-1.087179
105	0xbea9394b	-0.33051524
106	0x3ef67de2	0.48142916
107	0x3f5438aa	0.8289896
108	0x3f066604	0.52499413
109	0xbecf29f0	-0.40461683
110	0x3f4d200d	0.8012703
111	0xbfaf59a7	-1.3699235
112	0xbf9cc4a8	-1.2247515
113	0xbe5edc3b	-0.21763699
114	0x3ec87bc5	0.3915693
115	0xbd6e57e5	-0.05818929
116	0xbd1c73ae	-0.03819626
117	0xbec861ac	-0.39137018
118	0x3f0672a5	0.52518684
119	0x3f16429f	0.58695406
120	0xbec17c1c	-0.3779
121	0xbf30a829	-0.6900659
122	0x3d25ef79	0.040511582
123	0xbfb85050	-1.439951
124	0xbf4b388a	-0.79383147
125	0x3dc3354b	0.09531649
126	0xbf88abc2	-1.0677416
127	0x3fc1c010	1.5136738
128	0x3efc2bda	0.49252206
129	0xbf5fb194	-0.8738034
130	0xbf296bef	-0.6618032
131	0xbf7a062b	-0.9766566
132	0xbeac592b	-0.3366178
133	0x3fcef1e9	1.6167575
134	0x3f0c0651	0.5469714
135	0xbdd2dfe6	-0.102966115
136	0x3fc5366c	1.5407233
137	0x40016b3e	2.0221705
138	0x3f65a284	0.89701104
139	0x3fa480c4	1.2851796
140	0x3f2b8af0	0.67008877
141	0x3f29bc86	0.6630329
142	0xbfada686	-1.3566444
143	0x3f481347	0.78154415
144	0xbee95794	-0.4557463
145	0x3ed822b6	0.42213982
146	0xbe9e757c	-0.30949008
147	0x3e8eec26	0.27914542
148	0xbf24395a	-0.6415001
149	0xbf195553	-0.5989582
150	0xbf42e488	-0.7612996
151	0x3f00374a	0.50084364
152	0xbe1302a6	-0.14356479
153	0x3fa207c4	1.265862
154	0xbf1ee6c0	-0.62070847
155	0xbec08702	-0.37603003
156	0x3f6fca9f	0.9366855
157	0x3f4b7aff	0.7948455
158	0x3f889b0d	1.0672318
159	0x3f4dd148	0.8039746
160	0x3fa709ac	1.3049827
161	0x3e8bda9d	0.27315226
162	0xbf82f423	-1.0230755
163	0x3f436a04	0.7633364
164	0x3f82239d	1.0167118
165	0x3f9375fa	1.1520379
166	0x3ef69c71	0.4816623
167	0xbfa8b493	-1.3180107
168	0x3faac22d	1.3340508
169	0x3f3552cb	0.7082946
170	0xbc481e30	-0.0122142285
171	0x3f9882a2	1.1914866
172	0xbe8d5b90	-0.2760892
173	0xbf0df1d9	-0.55447155
174	0xbe23d56a	-0.1599938
175	0x3f6c84d3	0.92390174
176	0xbedee139	-0.43531206
177	0xbf6807dd	-0.90637
178	0x3f494168	0.78615427
179	0x3f9b8a3f	1.2151564
180	0x3fbd40c8	1.4785395
181	0x3f0a5b86	0.54045904
182	0x3e24d0a6	0.16095218
183	0x3e8e5475	0.2779881
184	0x3f989dba	1.1923134
185	0xbc37f5c9	-0.011228033
186	0xbf240ee1	-0.64085203
187	0x3f56defd	0.83934003
188	0xbdee46d3	-0.116346024
189	0x3ff8ce62	1.9437983
190	0x3dc5aeae	0.09652458
191	0x3fa4c4f5	1.2872607
192	0xbecc58b9	-0.3991144
193	0xbe72a09a	-0.23694077
194	0xbf339629	-0.70151
195	0xbfd4ec39	-1.663459
196	0x3f272e25	0.65304786
197	0xbf303dd8	-0.68844366
198	0x3f88d7ba	1.0690835
199	0x3fc48729	1.5353748
200	0x3ef95830	0.48700094
201	0x3f99a236	1.2002628
202	0x3f41aa25	0.75650245
203	0x3f772d23	0.9655325
204	0x3fcf6fdf	1.6206015
205	0x3ed57e83	0.41698083
206	0x3f1d0043	0.61328524
207	0xbe9f61cf	-0.3112931
208	0xbf4b8052	-0.79492676
209	0xbd1dcc1a	-0.038524725
210	0x3f0fe273	0.5620491
211	0x3ed7e5e4	0.4216758
212	0x3eb329f5	0.34992948
213	0x3f93ff64	1.1562314
214	0x3fa0c650	1.256052
215	0xbf22f958	-0.6366172
216	0xbf7bc0fb	-0.9834134
217	0x3e7ae6f3	0.24502163
218	0x3ec20f7e	0.37902445
219	0x4013e2af	2.3107107
220	0x3fd8f779	1.6950523
221	0xbf491df1	-0.7856131
222	0xbf8c0f1f	-1.0942115
223	0x3f0973d4	0.53692365
224	0xbe71a041	-0.23596288
225	0x3e62e2f6	0.22156891
226	0xbdac9b41	-0.0842805
227	0xbe31856c	-0.17336053
228	0x3e1db772	0.1540201
229	0xbdc07376	-0.093970224
230	0x3da2cf4c	0.07949695
231	0x3fb0afd5	1.380366
232	0x3f07054b	0.5274245
233	0xbef7a407	-0.4836733
234	0xbfd78c70	-1.6839733
235	0xbf8db78e	-1.1071641
236	0x3f880504	1.0626531
237	0xbfe99298	-1.8247862
238	0x3fd2b29f	1.6460761
239	0xbf0b489d	-0.54407674
240	0x3f84754a	1.0348294
241	0x3e99bf55	0.30028787
242	0x3fa595cd	1.293634
243	0x3f3d7058	0.7399955
244	0x3e9e26ae	0.30888885
245	0xbe726305	-0.23670585
246	0x3f66f3e1	0.9021588
247	0xbd79a611	-0.06094939
248	0x3f410404	0.7539675
249	0x3fa32c75	1.2747942
250	0xbdb0340b	-0.086036764
251	0xbfd4e91f	-1.6633643
252	0xbdf5d598	-0.120036304
253	0xbe0b63ab	-0.13612239
254	0x3f19d12d	0.600848
255	0x3f716dce	0.94308174

blocks.0.sa.heads.0.tril f4 [32, 32]
0	0x3f800000	1.0
1	0x00000000	0.0
2	0x00000000	0.0
3	0x00000000	0.0
4	0x00000000	0.0
5	0x00000000	0.0
6	0x00000000	0.0
7	0x00000000	0.0
8	0x00000000	0.0
9	0x00000000	0.0
10	0x00000000	0.0
11	0x00000000	0.0
12	0x00000000	0.0
13	0x00000000	0.0
14	0x00000000	0.0
15	0x00000000	0.0
16	0x00000000	0.0
17	0x00000000	0.0
18	0x00000000	0.0
19	0x00000000	0.0
20	0x00000000	0.0
21	0x00000000	0.0
22	0x00000000	0.0
23	0x00000000	0.0
24	0x00000000	0.0
25	0x00000000	0.0
26	0x00000000	0.0
27	0x00000000	0.0
28	0x00000000	0.0
29	0x00000000	0.0
30	0x00000000	0.0
31	0x00000000	0.0
32	0x3f800000	1.0
33	0x3f800000	1.0
34	0x00000000	0.0
35	0x00000000	0.0
36	0x00000000	0.0
37	0x00000000	0.0
38	0x00000000	0.0
39	0x00000000	0.0
40	0x00000000	0.0
41	0x00000000	0.0
42	0x00000000	0.0
43	0x00000000	0.0
44	0x00000000	0.0
45	0x00000000	0.0
46	0x00000000	0.0
47	0x00000000	0.0
48	0x00000000	0.0
49	0x00000000	0.0
50	0x00000000	0.0
51	0x00000000	0.0
52	0x00000000	0.0
53	0x00000000	0.0
54	0x00000000	0.0
55	0x00000000	0.0
56	0x00000000	0.0
57	0x00000000	0.0
58	0x00000000	0.0
59	0x00000000	0.0
60	0x00000000	0.0
61	0x00000000	0.0
62	0x00000000	0.0
63	0x00000000	0.0
64	0x3f800000	1.0
65	0x3f800000	1.0
66	0x3f800000	1.0
67	0x00000000	0.0
68	0x00000000	0.0
69	0x00000000	0.0
70	0x00000000	0.0
71	0x00000000	0.0
72	0x00000000	0.0
73	0x00000000	0.0
74	0x00000000	0.0
75	0x00000000	0.0
76	0x00000000	0.0
77	0x00000000	0.0
78	0x00000000	0.0
79	0x00000000	0.0
80	0x00000000	0.0
81	0x00000000	0.0
82	0x00000000	0.0
83	0x00000000	0.0
84	0x00000000	0.0
85	0x00000000	0.0
86	0x00000000	0.0
87	0x00000000	0.0
88	0x00000000	0.0
89	0x00000000	0.0
90	0x00000000	0.0
91	0x00000000	0.0
92	0x00000000	0.0
93	0x00000000	0.0
94	0x00000000	0.0
95	0x00000000	0.0
96	0x3f800000	1.0
97	0x3f800000	1.0
98	0x3f800000	1.0
99	0x3f800000	1.0
100	0x00000000	0.0
101	0x00000000	0.0
102	0x00000000	0.0
103	0x00000000	0.0
104	0x00000000	0.0
105	0x00000000	0.0
106	0x00000000	0.0
107	0x00000000	0.0
108	0x00000000	0.0
109	0x00000000	0.0
110	0x00000000	0.0
111	0x00000000	0.0
112	0x00000000	0.0
113	0x00000000	0.0
114	0x00000000	0.0
115	0x00000000	0.0
116	0x00000000	0.0
117	0x00000000	0.0
118	0x00000000	0.0
119	0x00000000	0.0
120	0x00000000	0.0
121	0x00000000	0.0
122	0x00000000	0.0
123	0x00000000	0.0
124	0x00000000	0.0
125	0x00000000	0.0
126	0x00000000	0.0
127	0x00000000	0.0
128	0x3f800000	1.0
129	0x3f800000	1.0
130	0x3f800000	1.0
131	0x3f800000	1.0
132	0x3f800000	1.0
133	0x00000000	0.0
134	0x00000000	0.0
135	0x00000000	0.0
136	0x00000000	0.0
137	0x00000000	0.0
138	0x00000000	0.0
139	0x00000000	0.0
140	0x00000000	0.0
141	0x00000000	0.0
142	0x00000000	0.0
143	0x00000000	0.0
144	0x00000000	0.0
145	0x00000000	0.0
146	0x00000000	0.0
147	0x00000000	0.0
148	0x00000000	0.0
149	0x00000000	0.0
150	0x00000000	0.0
151	0x00000000	0.0
152	0x00000000	0.0
153	0x00000000	0.0
154	0x00000000	0.0
155	0x00000000	0.0
156	0x00000000	0.0
157	0x00000000	0.0
158	0x00000000	0.0
159	0x00000000	0.0
160	0x3f800000	1.0
161	0x3f800000	1.0
162	0x3f800000	1.0
163	0x3f800000	1.0
164	0x3f800000	1.0
165	0x3f800000	1.0
166	0x00000000	0.0
167	0x00000000	0.0
168	0x00000000	0.0
169	0x00000000	0.0
170	0x00000000	0.0
171	0x00000000	0.0
172	0x00000000	0.0
173	0x00000000	0.0
174	0x00000000	0.0
175	0x00000000	0.0
176	0x00000000	0.0
177	0x00000000	0.0
178	0x00000000	0.0
179	0x00000000	0.0
180	0x00000000	0.0
181	0x00000000	0.0
182	0x00000000	0.0
183	0x00000000	0.0
184	0x00000000	0.0
185	0x00000000	0.0
186	0x00000000	0.0
187	0x00000000	0.0
188	0x00000000	0.0
189	0x00000000	0.0
190	0x00000000	0.0
191	0x00000000	0.0
192	0x3f800000	1.0
193	0x3f800000	1.0
194	0x3f800000	1.0
195	0x3f800000	1.0
196	0x3f800000	1.0
197	0x3f800000	1.0
198	0x3f800000	1.0
199	0x00000000	0.0
200	0x00000000	0.0
201	0x00000000	0.0
202	0x00000000	0.0
203	0x00000000	0.0
204	0x00000000	0.0
205	0x00000000	0.0
206	0x00000000	0.0
207	0x00000000	0.0
208	0x00000000	0.0
209	0x00000000	0.0
210	0x00000000	0.0
211	0x00000000	0.0
212	0x00000000	0.0
213	0x00000000	0.0
214	0x00000000	0.0
215	0x00000000	0.0
216	0x00000000	0.0
217	0x00000000	0.0
218	0x00000000	0.0
219	0x00000000	0.0
220	0x00000000	0.0
221	0x00000000	0.0
222	0x00000000	0.0
223	0x00000000	0.0
224	0x3f800000	1.0
225	0x3f800000	1.0
226	0x3f800000	1.0
227	0x3f800000	1.0
228	0x3f800000	1.0
229	0x3f800000	1.0
230	0x3f800000	1.0
231	0x3f800000	1.0
232	0x00000000	0.0
233	0x00000000	0.0
234	0x00000000	0.0
235	0x00000000	0.0
236	0x00000000	0.0
237	0x00000000	0.0
238	0x00000000	0.0
239	0x00000000	0.0
240	0x00000000	0.0
241	0x00000000	0.0
242	0x00000000	0.0
243	0x00000000	0.0
244	0x00000000	0.0
245	0x00000000	0.0
246	0x00000000	0.0
247	0x00000000	0.0
248	0x00000000	0.0
249	0x00000000	0.0
250	0x00000000	0.0
251	0x00000000	0.0
252	0x00000000	0.0
253	0x00000000	0.0
254	0x00000000	0.0
255	0x00000000	0.0

blocks.0.sa.heads.0.key.weight f4 [16, 64]
0	0x3cb25032	0.021766756
1	0x3da097a1	0.07841421
2	0x3e471cd0	0.19444585
3	0x3d587f88	0.052856
4	0xbe43d9d8	-0.1912607
5	0xbc21f1d8	-0.00988432
6	0xbd440bf3	-0.04786296
7	0x3c34c7b4	0.011033941
8	0x3c81f099	0.015861796
9	0x3d682cd7	0.056683388
10	0x3cea2bb9	0.028585302
11	0xbda8e00a	-0.08245857
12	0x3e039722	0.12850621
13	0x3caef6ce	0.02135792
14	0xbddddc97	-0.1083309
15	0x3da7e6ac	0.08198294
16	0x3d569993	0.052392554
17	0x3c3d7ba2	0.011565121
18	0x3e06d13f	0.13165759
19	0xbd7d0b22	-0.061778195
20	0x3e16a224	0.14710289
21	0x3d12ac2a	0.03580872
22	0x3dbff512	0.09372915
23	0x3e1047c0	0.1408987
24	0x3c8d321c	0.017235808
25	0x3c46dee8	0.012138106
26	0xbdff849a	-0.124764636
27	0x3d901049	0.07034356
28	0xbc712dd0	-0.014720395
29	0x3dba5130	0.090975165
30	0x3d1c321b	0.03813372
31	0x3d99e33d	0.075140454
32	0xbd159fc1	-0.036529306
33	0x3d34ed27	0.04417148
34	0x3e4111dd	0.1885447
35	0xbd86ab8b	-0.06575688
36	0x3c5ed29c	0.013600018
37	0x3d5827c5	0.052772302
38	0xbe0930a0	-0.13397455
39	0xbbb684ac	-0.005570015
40	0x3b2db7d1	0.0026507268
41	0x3d4dd1f7	0.050249066
42	0x3c25edf0	0.0101275295
43	0x3c824fd2	0.015907202
44	0xbe2f3cc4	-0.17113024
45	0x3df3d010	0.11904919
46	0xbd326331	-0.043551628
47	0xbd467b71	-0.048457567
48	0x3d891ade	0.06694578
49	0x3c94cb52	0.018163357
50	0x3d4a83f8	0.04944226
51	0x3d9abb72	0.075552836
52	0x3d4924d1	0.049107376
53	0x3e0a0b5e	0.13480899
54	0x3d705ecb	0.05868415
55	0x3dc50e39	0.096218534
56	0xbdaefeee	-0.08544718
57	0x3d8efcb7	0.06981795
58	0xbd871fd6	-0.06597869
59	0xbd56e823	-0.052467477
60	0xbdde256f	-0.10846984
61	0x3c693090	0.01423277
62	0xb9541d7c	-0.0002022888
63	0x3d48940e	0.04896932
64	0xbd94e932	-0.07271041
65	0x3d4d6b07	0.050150897
66	0x3e0e7de9	0.13915218
67	0x3dcc6cfd	0.09981725
68	0x3e0a4ba7	0.13505422
69	0xbd805ee5	-0.062681
70	0xbd3851fe	-0.04500007
71	0xbb89af5a	-0.0042018117
72	0x3ba441f6	0.005012746
73	0x3e72a72a	0.2369658
74	0x3d9f45e2	0.07777001
75	0x3dd0c8c6	0.101945445
76	0x3e232b93	0.15934591
77	0xbbdda7ee	-0.0067644035
78	0xbcff4da1	-0.031164946
79	0xbdcda462	-0.10041119
80	0xbdf16304	-0.11786464
81	0xbc7e202c	-0.0155106
82	0x3e396459	0.18104686
83	0x3e1b627b	0.15174286
84	0x3dc14413	0.09436812
85	0x3d57511c	0.052567586
86	0xbd27c74b	-0.040961545
87	0xbd970b64	-0.073752195
88	0x3d63a157	0.055573788
89	0xbc84daa1	-0.016217532
90	0xbc776176	-0.01509892
91	0xbd97de89	-0.07415492
92	0xbd680f17	-0.056655016
93	0xbd1037ad	-0.035209347
94	0xbd462d3e	-0.04838299
95	0xbd59642e	-0.053074054
96	0x3d89494e	0.06703435
97	0xbe15b077	-0.14618097
98	0xbd43a67b	-0.04776619
99	0xbc563211	-0.01307346
100	0x3d641c73	0.055691194
101	0x3bf5751b	0.0074907667
102	0x3d800975	0.06251804
103	0x3d7ebc9d	0.062191594
104	0x3dd0736a	0.101782635
105	0x3dbe850e	0.09302722
106	0xbdf55853	-0.11979737
107	0xbdd1c207	-0.10242086
108	0xbde4d662	-0.11173703
109	0xbde99962	-0.114062086
110	0xbde92792	-0.113845006
111	0xbbc47123	-0.0059949323
112	0x3d95b644	0.07310155
113	0x3d8a4ecf	0.06753313
114	0xbdf9853e	-0.12183617
115	0xbdc8d205	-0.09805683
116	0xbddfa667	-0.109204106
117	0xbde1763e	-0.11008881
118	0x3db89e2f	0.09014546
119	0x3db3be3c	0.08776519
120	0x3ddd5e2b	0.10808977
121	0xbc822e8b	-0.015891334
122	0x3c8edebb	0.01744019
123	0x3d5966bb	0.053076487
124	0x3d46b180	0.04850912
125	0x3d7f0ae7	0.062266257
126	0xbd8d2e0f	-0.068935506
127	0xbd4767c1	-0.04868293
128	0x3cda99d5	0.026684681
129	0xbdb3617d	-0.08758829
130	0x3da3b19b	0.0799286
131	0x3d738faf	0.0594632
132	0xbce9c886	-0.028538
133	0x3d67c7b3	0.056586932
134	0x3dd40fa4	0.10354546
135	0xbd0ce2c7	-0.03439596
136	0xbdf6d4d1	-0.1205231
137	0x3d0eb040	0.034836054
138	0xbb63c965	-0.0034757492
139	0xbda71b0a	-0.08159454
140	0x3e04e044	0.12976176
141	0x3e3f279f	0.18667458
142	0x3e040c8e	0.12895414
143	0x3d2fddf3	0.042936277
144	0xbda91e78	-0.082577646
145	0x3dc6634a	0.09686907
146	0xbde6a14b	-0.11261233
147	0x3e2b7ea9	0.16747536
148	0xbdb00b81	-0.08595944
149	0x3c6e1711	0.014531867
150	0x3d23cbca	0.03998927
151	0xbdc1f7ba	-0.09471078
152	0xbd0ca9d7	-0.03434166
153	0x3d3c09af	0.045907672
154	0xbd36841a	-0.044559576
155	0x3dd9e7ce	0.10639916
156	0x3d82a3d2	0.063789025
157	0xbe22a417	-0.15882908
158	0xbcd4ab9d	-0.025960738
159	0x3dde9570	0.10868347
160	0x3d80ccee	0.06289087
161	0xbdc505a6	-0.09620218
162	0x3ce5a71e	0.02803379
163	0xbb881480	-0.0041528344
164	0x3d9b47fb	0.075820886
165	0xbdd63f8f	-0.104613416
166	0x3ceef316	0.029168647
167	0xbdac49da	-0.084125236
168	0x3ce38aed	0.027776206
169	0x3e083876	0.13302788
170	0x3dc4944c	0.09598598
171	0xbd23598c	-0.03988032
172	0x3ce15684	0.027507074
173	0x3df10921	0.11769319
174	0xbd93b1ff	-0.072116844
175	0xbd1f934c	-0.038958833
176	0x3c973a11	0.018460305
177	0x3d5770ba	0.05259774
178	0xbd19d929	-0.037560616
179	0x3b9ceb67	0.0047888043
180	0x3d421461	0.047382716
181	0x3e221dd4	0.15831691
182	0x3c04a4ff	0.008095979
183	0xbdcbc96a	-0.09950526
184	0xbd1691a4	-0.036759987
185	0xbe9ef724	-0.31047928
186	0xbc814abe	-0.01578271
187	0xbdc4813d	-0.09594963
188	0x3d5a76ce	0.053335957
189	0x3d7439ef	0.059625562
190	0x3d3c82db	0.04602323
191	0xbdf2530f	-0.118322484
192	0x3dea0c06	0.114280745
193	0x3deee5e3	0.11664941
194	0x3e9b0e6f	0.3028445
195	0xbdb4efd9	-0.0883481
196	0xbda1086d	-0.07862935
197	0x3db1f85a	0.086899474
198	0xbdd012a7	-0.10159808
199	0x3d9b298d	0.075762846
200	0x3e29d2d6	0.16584334
201	0x3d4445d9	0.047918174
202	0xbdbaaf52	-0.09115471
203	0x3dcac2ed	0.099004604
204	0x3d3c2479	0.04593322
205	0x3d09f0eb	0.033677023
206	0xbd7f5c8e	-0.062344126
207	0x3cbb375f	0.022853551
208	0x3d3ba164	0.04580821
209	0x3db9b747	0.090681605
210	0x3c965242	0.01834977
211	0xbcf0b83b	-0.029384723
212	0xbd51eb0e	-0.051249556
213	0xbd065cb9	-0.03280327
214	0xbd830f9f	-0.06399464
215	0x3d3f6b69	0.046733294
216	0x3e474ad2	0.19462135
217	0xbcb6b286	-0.022301923
218	0xbc0e86d3	-0.008699137
219	0xbd791898	-0.06081447
220	0x3d60a08a	0.054840602
221	0xbd6fa372	-0.058505483
222	0xbccaf521	-0.02477509
223	0x3c8a9773	0.01691792
224	0xbd713378	-0.058886975
225	0xbd7f5c66	-0.062343977
226	0xbdfda7b6	-0.12385504
227	0xbc6ed6f6	-0.014577618
228	0xbd8b9237	-0.06814998
229	0xbd7114c1	-0.058857683
230	0x3c80f10e	0.015739944
231	0x3d8878d9	0.06663675
232	0x3d0e0a83	0.034677994
233	0x3d8faecc	0.07015762
234	0x3b111385	0.0022136879
235	0x3d6b3571	0.057424013
236	0xbd91efce	-0.07125817
237	0x3cc9175a	0.024547268
238	0x3dc28954	0.094988495
239	0xbd237023	-0.039901864
240	0xbce56ddc	-0.028006487
241	0x3d1f289d	0.03885709
242	0xbdae64e2	-0.085153356
243	0x3d8f5a46	0.0699964
244	0xbdbe8baa	-0.093039826
245	0x3bc490e6	0.0059987186
246	0x3dabfa9f	0.083974116
247	0xbd40c2e4	-0.047060862
248	0xbd0e82d2	-0.03479273
249	0x3d73fadb	0.059565406
250	0xbdbf6af6	-0.09346573
251	0x3e2d86f5	0.16946013
252	0xbd87cdf3	-0.066310786
253	0x3c5656cd	0.013082218
254	0xbc88c5d5	-0.016695896
255	0x3d937a92	0.07201113

blocks.0.sa.heads.0.query.weight f4 [16, 64]
0	0xbdce363f	-0.1006894
1	0x3c8c1f75	0.017104844
2	0x3d93c691	0.07215608
3	0x3d52e62b	0.051489037
4	0x3d23b04a	0.039963044
5	0xbdb2f2c3	-0.087377094
6	0xbcb8dde6	-0.022566747
7	0xbde27b98	-0.1105873
8	0xbdbad4ed	-0.091226436
9	0xbe3fef22	-0.18743566
10	0xbe0a7ab4	-0.1352337
11	0x3d533551	0.05156452
12	0x3da9119f	0.08255314
13	0xbd1b5311	-0.037921015
14	0xbd2529b8	-0.04032299
15	0xbd42466c	-0.04743044
16	0xbdef4172	-0.116824046
17	0xbd89207e	-0.066956505
18	0x3d5d3b0c	0.05401139
19	0x3dc636fc	0.09678456
20	0xbccf04d7	-0.025270863
21	0xbc0802ca	-0.008301446
22	0xbc495ae1	-0.012289734
23	0xbd21c158	-0.039491028
24	0xbe00e0f0	-0.12585807
25	0x3da23d6d	0.07921872
26	0x3dca3460	0.09873271
27	0x3d7d8cf1	0.06190199
28	0xbc34cd27	-0.01103524
29	0x3aeacc28	0.0017913627
30	0x3cecff09	0.028930204
31	0x3ca0ef56	0.019645374
32	0x3dc980e8	0.0983904
33	0x3c9b3a8a	0.018948812
34	0xbd2f13c1	-0.04274345
35	0x3d6bfc06	0.057613395
36	0xbabf2576	-0.0014583308
37	0xbdfcb996	-0.12340085
38	0x3dbd42de	0.092412695
39	0x3d394c38	0.045238703
40	0x3d1c1ac7	0.038111474
41	0xbcde0d4a	-0.027105946
42	0x3cbebb2f	0.023282615
43	0x3dc7c6b2	0.09754695
44	0x3d81b55d	0.063334204
45	0xbe2d496c	-0.1692254
46	0x3c519b9f	0.012793451
47	0x3d3d16fa	0.04616449
48	0xbcefd98d	-0.029278541
49	0x3d0c4248	0.0342429
50	0x3dfa2e1c	0.12215826
51	0xbdb3598b	-0.08757313
52	0xbe1b820c	-0.15186328
53	0x3e3c6bc4	0.18400484
54	0x3dc4ab11	0.09602941
55	0x3d9c980b	0.076461874
56	0x3d1426c8	0.036169797
57	0x3cda4d8a	0.026648302
58	0x3e06ab12	0.13151196
59	0x3d82afcb	0.06381186
60	0xbd117e99	-0.035521124
61	0xbde28212	-0.11059965
62	0xbbfd333c	-0.007727055
63	0x3df0d9db	0.11760303
64	0xbc8023da	-0.015642095
65	0x3d8a029b	0.06738778
66	0x3d66494a	0.056222238
67	0x3e282bfe	0.16423032
68	0x3d8f29a5	0.06990365
69	0x3d74e156	0.05978521
70	0xbd79cadc	-0.060984477
71	0x3dc62394	0.09674755
72	0xbc77ca2c	-0.015123885
73	0xbc9a2644	-0.018817075
74	0xbdc1af2d	-0.0945724
75	0xbdf3d51c	-0.11905882
76	0xbd36d8e6	-0.044640444
77	0x3ce6fa97	0.028195662
78	0x3d2e2cf3	0.042523336
79	0x3e0ab0b7	0.13543974
80	0xbd71c8cf	-0.059029397
81	0x3be0e0fc	0.0068627577
82	0x3d83a832	0.06428565
83	0x3e26276e	0.16225979
84	0x3cae496d	0.021275247
85	0x3d58a991	0.052896086
86	0x3cbcb773	0.023036694
87	0xbde88f88	-0.113555014
88	0x3c2d364e	0.010572029
89	0x3dbbe5e4	0.091747075
90	0xbd067271	-0.032823984
91	0xbcc741d0	-0.024323374
92	0xbd40622e	-0.04696863
93	0xbdbd3d24	-0.09240177
94	0xbd519962	-0.051171668
95	0x3bfa3875	0.0076361247
96	0x3dd41d20	0.10357118
97	0xbcbf3c6a	-0.023344237
98	0x3cb23c07	0.021757139
99	0x3df1670d	0.117872335
100	0xbceeaf8c	-0.029136442
101	0x3c627ace	0.013823224
102	0xbdd20266	-0.10254364
103	0x3d833d42	0.064081684
104	0x3dbc9b79	0.092093416
105	0xbdc1e65d	-0.094677664
106	0x3c3faf7f	0.011699556
107	0xbd8d479a	-0.068984225
108	0xbe33260a	-0.1749498
109	0x3cbd00a9	0.023071604
110	0xbd88ece0	-0.06685805
111	0x3bf78861	0.0075540994
112	0xbc91e152	-0.017807636
113	0xbc53f018	-0.012935661
114	0x3e7c1b8f	0.24619888
115	0xbe46ad1d	-0.19401975
116	0xbe405d33	-0.18785553
117	0x3e2a2f63	0.16619639
118	0xbdc215a7	-0.09476786
119	0x3d8a8802	0.06764223
120	0x3d91ab88	0.07112795
121	0xbd8a4441	-0.067513
122	0xbd82f56c	-0.06394467
123	0x3c5dea5d	0.013544646
124	0xbd61678c	-0.05503039
125	0x3d28af19	0.04118261
126	0x3df5b6f0	0.11997783
127	0xbddb2313	-0.10700049
128	0x3d443d11	0.0479098
129	0x3e1592ca	0.14606777
130	0x3d6395a6	0.055562638
131	0xbba277cc	-0.0049581286
132	0xbd9c65bd	-0.076365925
133	0xbd34b4cc	-0.044117734
134	0xbd2d5c2c	-0.04232423
135	0x3d896ef2	0.06710614
136	0x3dce3ec9	0.10070569
137	0xbd3eab5f	-0.04655015
138	0xbe18e97f	-0.14932822
139	0x3c2e2758	0.0106294975
140	0x3dafb9b0	0.08580339
141	0xbd01baba	-0.031672217
142	0x3da6d85b	0.08146735
143	0xbd9ef17d	-0.07760904
144	0xbded19fb	-0.11577221
145	0xbe5da1f3	-0.2164381
146	0x3d972477	0.07380002
147	0xbd5c86ea	-0.0538396
148	0x3d6a086c	0.057136938
149	0xbdbd8400	-0.092536926
150	0xbc48cb6b	-0.01225553
151	0xbc659eb2	-0.014014887
152	0xbc9d7955	-0.019222895
153	0xbd06e307	-0.032931354
154	0xbd0a17fc	-0.03371428
155	0xbd532755	-0.05155118
156	0xbd7a9dba	-0.061185576
157	0x3c984cf3	0.01859138
158	0x3d98f83c	0.07469222
159	0x3daff026	0.085907266
160	0x3cce2c8c	0.025167726
161	0x3defbfa4	0.117064744
162	0xbd03a501	-0.03213978
163	0x3e1e1808	0.15438855
164	0x3c431219	0.01190617
165	0x3d827e5a	0.06371756
166	0xbce22e83	-0.02761007
167	0xbc678b79	-0.014132374
168	0x3d61b701	0.055106167
169	0x3b83bc31	0.004020237
170	0x3d1f0c90	0.03883034
171	0x3c010579	0.00787484
172	0xbdfbf963	-0.12303426
173	0xbc927fb8	-0.017883167
174	0x3dfda835	0.123855986
175	0xbe168c39	-0.14701928
176	0xbcacdcfa	-0.021101464
177	0x3dbbbdfe	0.091670975
178	0x3c12cf73	0.008960593
179	0x3e1570e1	0.14593841
180	0xbde543e3	-0.11194589
181	0x3e4a46a8	0.19753516
182	0xbe0ed242	-0.13947394
183	0x3c7cb67a	0.015424365
184	0x3d256630	0.040380657
185	0xbde4df73	-0.11175432
186	0x3d7e29cf	0.06205159
187	0xbbbdb7a3	-0.0057897135
188	0x3da35cfd	0.079767205
189	0xbe5bc328	-0.21461165
190	0x3d8f5280	0.069981575
191	0x3d6b2d6c	0.057416365
192	0x3dc5af30	0.09652555
193	0x3cdbc4e1	0.026827278
194	0xbd8997c7	-0.06718402
195	0x3d9d3352	0.07675804
196	0x3dcf975e	0.10136293
197	0xbdb6c6fa	-0.089246705
198	0xbc4712a1	-0.012150438
199	0xbd008195	-0.03137358
200	0xbcfbc86d	-0.030735219
201	0xbc40af5f	-0.011760562
202	0x3d909298	0.070592105
203	0x3cacc063	0.02108783
204	0xbcce2a05	-0.02516652
205	0x3d8ef320	0.06979966
206	0x3e2de06d	0.16980143
207	0x3d0e01a2	0.034669526
208	0x3d685936	0.056725703
209	0x3d395ad3	0.045252632
210	0x3e3fe594	0.18739921
211	0x3e13e25d	0.1444182
212	0x3de3cb37	0.111227445
213	0xbcc99743	-0.02460826
214	0x3dc47e17	0.09594362
215	0xbdaf5af5	-0.085622706
216	0x3e10cbae	0.14140198
217	0xbd7c1d96	-0.061551653
218	0x3d849c7d	0.0647516
219	0x3cd94c59	0.026525663
220	0x3d97b2a6	0.07407121
221	0xbd812cf2	-0.06307401
222	0x3cb3b364	0.021936126
223	0x3e09c00e	0.1345217
224	0xbbc8e44a	-0.00613073
225	0x3d80d254	0.06290117
226	0x3d169194	0.036759928
227	0xbd122929	-0.035683785
228	0xbd272a87	-0.04081204
229	0x3bc4feeb	0.006011834
230	0x3dbe630f	0.09296238
231	0x3db30ad4	0.087423
232	0xbc53f6fe	-0.0129373055
233	0xbdf688d7	-0.12037819
234	0xbd10003f	-0.035156485
235	0xbd92b255	-0.071629204
236	0x3cc0643b	0.023485294
237	0x3df220da	0.11822672
238	0x3d2e81a3	0.0426041
239	0x3dd9df04	0.1063824
240	0xbdaf1e5a	-0.08550711
241	0x3c8c993c	0.017162912
242	0xbd5943b9	-0.0530431
243	0xbb0d1c44	-0.002153174
244	0x3ccda427	0.025102688
245	0x3dfd59f6	0.12370674
246	0xbdc725c1	-0.09723998
247	0x3d6833d1	0.05669004
248	0x3d199249	0.037493024
249	0xbe208d36	-0.15678868
250	0xbe24b21f	-0.16083573
251	0x3c77cbde	0.015124289
252	0x3dddc611	0.10828794
253	0xbe033392	-0.12812641
254	0xbd918ee3	-0.071073316
255	0xbe13a8e5	-0.14419897

blocks.0.sa.heads.0.value.weight f4 [16, 64]
0	0xbd83cadc	-0.06435177
1	0x3dd3f604	0.10349658
2	0x3e1bf6a3	0.15230803
3	0xbc40e1fe	-0.011772631
4	0xbe107164	-0.14105755
5	0xbd6c2b38	-0.057658404
6	0xbc80a69f	-0.015704451
7	0x3ca770c0	0.020439506
8	0x3e146d06	0.14494714
9	0x3e132154	0.14368182
10	0xbdfd7ff1	-0.123779185
11	0x3d8836ea	0.06651099
12	0xbdbd9efb	-0.09258839
13	0xbe0c4018	-0.13696325
14	0x3d490d0c	0.049084708
15	0x3da308e2	0.07960679
16	0x3d324e33	0.043531608
17	0x3aaf9da9	0.0013398427
18	0xbc83aa5f	-0.01607245
19	0xbd252728	-0.040320545
20	0xbd50441c	-0.050846204
21	0xbd7db80b	-0.061943095
22	0xbdb93d60	-0.090449095
23	0x3e0bc345	0.13648708
24	0x3d1339e2	0.035943873
25	0xbd6fefa6	-0.058578156
26	0xbd5bba52	-0.053644486
27	0xbc3c128b	-0.01147903
28	0xbdded13b	-0.10879751
29	0x3d115aea	0.035487093
30	0xbd767fea	-0.060180582
31	0x3d2e7c3c	0.042598948
32	0xbd75fbdc	-0.060054645
33	0x3d1db807	0.03850558
34	0xbd209e22	-0.039213307
35	0xbde7b7f5	-0.11314384
36	0xbcf510d5	-0.029915253
37	0xbe40c437	-0.1882485
38	0xbe2524aa	-0.16127267
39	0xbc930c8e	-0.017950322
40	0xbcadea3d	-0.021229858
41	0x3d32d851	0.043663327
42	0x3e6d91c4	0.23200136
43	0xbd07c322	-0.033145078
44	0x3c9a544f	0.01883903
45	0xbdcbbffb	-0.09948727
46	0xbd57507e	-0.052566998
47	0x3e32e3b9	0.17469682
48	0xbe103a9f	-0.14084862
49	0x3db1a07c	0.08673188
50	0x3d8fd87d	0.07023714
51	0x3d62d09c	0.055374727
52	0xbd12e20d	-0.03586011
53	0xbab2774f	-0.0013615879
54	0x3d661657	0.05617365
55	0xbc90d9a0	-0.017681897
56	0x3c479802	0.012182238
57	0x3ccd3e82	0.02505422
58	0x3d76b65a	0.060232498
59	0x3d869f37	0.065733366
60	0xbb8346bb	-0.0040062345
61	0xbe0d4420	-0.13795519
62	0xbe06e97a	-0.13175002
63	0xbc41a710	-0.011819616
64	0x3d0b6693	0.03403337
65	0xbe339ac4	-0.17539507
66	0xbdcbe0af	-0.09954964
67	0x3e0e6819	0.13906898
68	0x3e099bd1	0.13438345
69	0xbdaf33d8	-0.0855481
70	0x3c38f79d	0.011289504
71	0xbdf8863f	-0.121349804
72	0xbc84f786	-0.01623131
73	0xbaee2c84	-0.0018171226
74	0x3dbbe43a	0.0917439
75	0xbb001b31	-0.0019547457
76	0xbd6aefed	-0.057357717
77	0xbcbaeafb	-0.022817126
78	0x3d896d40	0.06710291
79	0x3e166b38	0.14689338
80	0xbdb44c2f	-0.08803593
81	0x3d64bf95	0.05584677
82	0xbd947672	-0.07249154
83	0xbe0f9cac	-0.1402461
84	0xbd899559	-0.06717939
85	0xbd99af87	-0.07504182
86	0x3c44ee81	0.012019754
87	0xbb63b064	-0.0034742588
88	0x3d80a7ac	0.06281981
89	0xbe24d1b7	-0.16095625
90	0x3d38e7f7	0.045143094
91	0xbdbc7a82	-0.09203054
92	0xbd3a913b	-0.04554866
93	0x3e8ecbc8	0.27889848
94	0x3dc17fe9	0.09448225
95	0xbc62df47	-0.013847179
96	0xbb242e24	-0.0025051916
97	0xbd9d47df	-0.07679724
98	0xbdc5e724	-0.09663227
99	0x3dc84f39	0.097807355
100	0xbd19e03b	-0.03756736
101	0xbc0e4101	-0.00868249
102	0xbd06cfa1	-0.032912854
103	0x3e0cac08	0.137375
104	0xbe4675e9	-0.19380917
105	0xbd22be7d	-0.039732445
106	0x3bf68345	0.0075229728
107	0x3dfd4743	0.12367108
108	0x3e1e7d41	0.15477468
109	0xbe052540	-0.13002491
110	0x3d6568fa	0.056008317
111	0x3db039af	0.08604752
112	0x3e337695	0.17525704
113	0x3d894900	0.06703377
114	0x3be6073f	0.007019907
115	0x3db8cee7	0.090238385
116	0x3d27f02e	0.041000538
117	0xbd6b1bda	-0.05739961
118	0xbde06010	-0.109558225
119	0xbb661225	-0.003510603
120	0x3ccfd3c3	0.02536953
121	0xbd520778	-0.051276654
122	0xbc9f5685	-0.019450435
123	0xbb940e66	-0.004518318
124	0x3df8a9d6	0.12141769
125	0xbd29e5fa	-0.04147909
126	0x3e0400c9	0.12890925
127	0x3c19fcf3	0.009398687
128	0xbb80c0ed	-0.0039292485
129	0x3d6c10b3	0.057633113
130	0x3d62f13e	0.055405848
131	0xbddd3bc2	-0.108024135
132	0x3df181cb	0.11792334
133	0x3c5ed2f0	0.013600096
134	0x3cba4823	0.022739476
135	0x3dc06be6	0.0939558
136	0x3cc0fc51	0.023557814
137	0x3d3ca4e1	0.04605568
138	0x3d24ef6f	0.040267404
139	0xbcf7b651	-0.030238302
140	0x3d8c0fcf	0.06838953
141	0xbcd18cda	-0.025579859
142	0xbce79219	-0.028267907
143	0x3d165e44	0.036710992
144	0x3dab4256	0.08362262
145	0xbcb197d2	-0.021678839
146	0xbc93f216	-0.018059772
147	0x3ccfc935	0.025364498
148	0x3c9cff55	0.01916472
149	0xbdd69f7c	-0.10479638
150	0x399f122d	0.00030340385
151	0x3d621466	0.055195235
152	0xbd061ed2	-0.032744236
153	0xbd88bb8b	-0.06676396
154	0x3d6dc823	0.058052193
155	0xbdd79834	-0.10527077
156	0x3d7fa819	0.06241617
157	0xbdac3739	-0.084089704
158	0xbde03a5f	-0.109486334
159	0xbdc3e7f7	-0.09565728
160	0xbe23d9a3	-0.1600099
161	0x3d977533	0.07395401
162	0x3dee2fa2	0.11630179
163	0xbd11174c	-0.03542261
164	0xbda0057f	-0.07813548
165	0xbce11e37	-0.027480228
166	0x3d4fb25f	0.050707217
167	0x3ccd32cc	0.025048636
168	0xbda8bc19	-0.08239002
169	0xbdd86d05	-0.10567669
170	0x3dd5f0db	0.1044633
171	0x3c81b3ef	0.01583287
172	0x3e03dcb2	0.12877157
173	0xbde394f6	-0.111123964
174	0x3ddc9327	0.107702546
175	0xbc83a8c4	-0.016071685
176	0x3d92b5b3	0.071635626
177	0xbd27ab2f	-0.040934738
178	0x3d5aa5ac	0.053380653
179	0x3d4e48cd	0.050362397
180	0x3d1a1a6a	0.037622847
181	0x3ab1638a	0.0013533693
182	0x3c6eb35a	0.014569128
183	0x3e31bb3c	0.1735658
184	0xbe81158d	-0.25211754
185	0x3dc55457	0.09635227
186	0x3d180d9d	0.037122358
187	0x3d37bb88	0.044856578
188	0xbd4fd589	-0.050740752
189	0x3e0bb5ee	0.1364362
190	0xbbdb2737	-0.0066880244
191	0xbd7a4c76	-0.061108075
192	0xbc383439	-0.01124292
193	0xbd9c2350	-0.07623923
194	0xbddcd55b	-0.10782882
195	0x3e1c7931	0.15280606
196	0xbdfb961d	-0.12284491
197	0x3d6a77f1	0.05724329
198	0xbd3f47b1	-0.04669923
199	0xbd6bd7ac	-0.057578728
200	0x3df15573	0.11783876
201	0x3ccfbf4d	0.025359774
202	0xbe153915	-0.14572556
203	0xbd86d159	-0.06582899
204	0x3b98961d	0.004656567
205	0x3d8f58c7	0.06999355
206	0x3dcb1949	0.09916932
207	0x3ca20852	0.019779358
208	0xbe4c89f8	-0.19974506
209	0x3e17ec95	0.14836343
210	0xbcac0901	-0.021000387
211	0x3e0b6939	0.13614358
212	0xbba84ba2	-0.0051359693
213	0xbd3bcbd7	-0.045848694
214	0x3dee0c43	0.116234325
215	0xbce5d01d	-0.028053338
216	0xbb9c79a6	-0.004775244
217	0xbdd07350	-0.10178244
218	0x3d86e7cb	0.0658718
219	0xbe241029	-0.1602179
220	0xbc00c7dd	-0.007860151
221	0xbe0240e9	-0.12720074
222	0xb8906177	-6.884609e-05
223	0xbd7a04c3	-0.061039697
224	0x3e242aed	0.16032
225	0x3d13dddd	0.036100257
226	0x3e2e4721	0.17019321
227	0x3e03a2fb	0.12855141
228	0xbd685299	-0.056719396
229	0x3da21644	0.07914403
230	0xbc861a32	-0.016369913
231	0x3d8ff875	0.07029811
232	0xbd15bcea	-0.036557116
233	0xbd101e9f	-0.035185453
234	0xbd7b9bc8	-0.06142786
235	0xbe2fd60a	-0.17171493
236	0xbe4db64e	-0.20089075
237	0x3e11ce70	0.14238906
238	0xbd77fb3a	-0.060542323
239	0x3d94a766	0.07258491
240	0x3dec74c3	0.11545708
241	0x3e6e4a83	0.23270611
242	0x3d1d6d20	0.038434148
243	0xbcbd0752	-0.02307478
244	0xbe096782	-0.13418391
245	0xbd085514	-0.03328426
246	0xbdcfc698	-0.101453006
247	0x3d4eff72	0.05053658
248	0xbd940796	-0.072280094
249	0xbe02b820	-0.1276555
250	0x3d15e9f9	0.036600087
251	0x3cbaac54	0.02278725
252	0xbd2953e4	-0.04133977
253	0xbb809afb	-0.003924725
254	0x3d82cd1a	0.06386776
255	0xbe1c8e60	-0.15288687

blocks.0.sa.heads.1.tril f4 [32, 32]
0	0x3f800000	1.0
1	0x00000000	0.0
2	0x00000000	0.0
3	0x00000000	0.0
4	0x00000000	0.0
5	0x00000000	0.0
6	0x00000000	0.0
7	0x00000000	0.0
8	0x00000000	0.0
9	0x00000000	0.0
10	0x00000000	0.0
11	0x00000000	0.0
12	0x00000000	0.0
13	0x00000000	0.0
14	0x00000000	0.0
15	0x00000000	0.0
16	0x00000000	0.0
17	0x00000000	0.0
18	0x00000000	0.0
19	0x00000000	0.0
20	0x00000000	0.0
21	0x00000000	0.0
22	0x00000000	0.0
23	0x00000000	0.0
24	0x00000000	0.0
25	0x00000000	0.0
26	0x00000000	0.0
27	0x00000000	0.0
28	0x00000000	0.0
29	0x00000000	0.0
30	0x00000000	0.0
31	0x00000000	0.0
32	0x3f800000	1.0
33	0x3f800000	1.0
34	0x00000000	0.0
35	0x00000000	0.0
36	0x00000000	0.0
37	0x00000000	0.0
38	0x00000000	0.0
39	0x00000000	0.0
40	0x00000000	0.0
41	0x00000000	0.0
42	0x00000000	0.0
43	0x00000000	0.0
44	0x00000000	0.0
45	0x00000000	0.0
46	0x00000000	0.0
47	0x00000000	0.0
48	0x00000000	0.0
49	0x00000000	0.0
50	0x00000000	0.0
51	0x00000000	0.0
52	0x00000000	0.0
53	0x00000000	0.0
54	0x00000000	0.0
55	0x00000000	0.0
56	0x00000000	0.0
57	0x00000000	0.0
58	0x00000000	0.0
59	0x00000000	0.0
60	0x00000000	0.0
61	0x00000000	0.0
62	0x00000000	0.0
63	0x00000000	0.0
64	0x3f800000	1.0
65	0x3f800000	1.0
66	0x3f800000	1.0
67	0x00000000	0.0
68	0x00000000	0.0
69	0x00000000	0.0
70	0x00000000	0.0
71	0x00000000	0.0
72	0x00000000	0.0
73	0x00000000	0.0
74	0x00000000	0.0
75	0x00000000	0.0
76	0x00000000	0.0
77	0x00000000	0.0
78	0x00000000	0.0
79	0x00000000	0.0
80	0x00000000	0.0
81	0x00000000	0.0
82	0x00000000	0.0
83	0x00000000	0.0
84	0x00000000	0.0
85	0x00000000	0.0
86	0x00000000	0.0
87	0x00000000	0.0
88	0x00000000	0.0
89	0x00000000	0.0
90	0x00000000	0.0
91	0x00000000	0.0
92	0x00000000	0.0
93	0x00000000	0.0
94	0x00000000	0.0
95	0x00000000	0.0
96	0x3f800000	1.0
97	0x3f800000	1.0
98	0x3f800000	1.0
99	0x3f800000	1.0
100	0x00000000	0.0
101	0x00000000	0.0
102	0x00000000	0.0
103	0x00000000	0.0
104	0x00000000	0.0
105	0x00000000	0.0
106	0x00000000	0.0
107	0x00000000	0.0
108	0x00000000	0.0
109	0x00000000	0.0
110	0x00000000	0.0
111	0x00000000	0.0
112	0x00000000	0.0
113	0x00000000	0.0
114	0x00000000	0.0
115	0x00000000	0.0
116	0x00000000	0.0
117	0x00000000	0.0
118	0x00000000	0.0
119	0x00000000	0.0
120	0x00000000	0.0
121	0x00000000	0.0
122	0x00000000	0.0
123	0x00000000	0.0
124	0x00000000	0.0
125	0x00000000	0.0
126	0x00000000	0.0
127	0x00000000	0.0
128	0x3f800000	1.0
129	0x3f800000	1.0
130	0x3f800000	1.0
131	0x3f800000	1.0
132	0x3f800000	1.0
133	0x00000000	0.0
134	0x00000000	0.0
135	0x00000000	0.0
136	0x00000000	0.0
137	0x00000000	0.0
138	0x00000000	0.0
139	0x00000000	0.0
140	0x00000000	0.0
141	0x00000000	0.0
142	0x00000000	0.0
143	0x00000000	0.0
144	0x00000000	0.0
145	0x00000000	0.0
146	0x00000000	0.0
147	0x00000000	0.0
148	0x00000000	0.0
149	0x00000000	0.0
150	0x00000000	0.0
151	0x00000000	0.0
152	0x00000000	0.0
153	0x00000000	0.0
154	0x00000000	0.0
155	0x00000000	0.0
156	0x00000000	0.0
157	0x00000000	0.0
158	0x00000000	0.0
159	0x00000000	0.0
160	0x3f800000	1.0
161	0x3f800000	1.0
162	0x3f800000	1.0
163	0x3f800000	1.0
164	0x3f800000	1.0
165	0x3f800000	1.0
166	0x00000000	0.0
167	0x00000000	0.0
168	0x00000000	0.0
169	0x00000000	0.0
170	0x00000000	0.0
171	0x00000000	0.0
172	0x00000000	0.0
173	0x00000000	0.0
174	0x00000000	0.0
175	0x00000000	0.0
176	0x00000000	0.0
177	0x00000000	0.0
178	0x00000000	0.0
179	0x00000000	0.0
180	0x00000000	0.0
181	0x00000000	0.0
182	0x00000000	0.0
183	0x00000000	0.0
184	0x00000000	0.0
185	0x00000000	0.0
186	0x00000000	0.0
187	0x00000000	0.0
188	0x00000000	0.0
189	0x00000000	0.0
190	0x00000000	0.0
191	0x00000000	0.0
192	0x3f800000	1.0
193	0x3f800000	1.0
194	0x3f800000	1.0
195	0x3f800000	1.0
196	0x3f800000	1.0
197	0x3f800000	1.0
198	0x3f800000	1.0
199	0x00000000	0.0
200	0x00000000	0.0
201	0x00000000	0.0
202	0x00000000	0.0
203	0x00000000	0.0
204	0x00000000	0.0
205	0x00000000	0.0
206	0x00000000	0.0
207	0x00000000	0.0
208	0x00000000	0.0
209	0x00000000	0.0
210	0x00000000	0.0
211	0x00000000	0.0
212	0x00000000	0.0
213	0x00000000	0.0
214	0x00000000	0.0
215	0x00000000	0.0
216	0x00000000	0.0
217	0x00000000	0.0
218	0x00000000	0.0
219	0x00000000	0.0
220	0x00000000	0.0
221	0x00000000	0.0
222	0x00000000	0.0
223	0x00000000	0.0
224	0x3f800000	1.0
225	0x3f800000	1.0
226	0x3f800000	1.0
227	0x3f800000	1.0
228	0x3f800000	1.0
229	0x3f800000	1.0
230	0x3f800000	1.0
231	0x3f800000	1.0
232	0x00000000	0.0
233	0x00000000	0.0
234	0x00000000	0.0
235	0x00000000	0.0
236	0x00000000	0.0
237	0x00000000	0.0
238	0x00000000	0.0
239	0x00000000	0.0
240	0x00000000	0.0
241	0x00000000	0.0
242	0x00000000	0.0
243	0x00000000	0.0
244	0x00000000	0.0
245	0x00000000	0.0
246	0x00000000	0.0
247	0x00000000	0.0
248	0x00000000	0.0
249	0x00000000	0.0
250	0x00000000	0.0
251	0x00000000	0.0
252	0x00000000	0.0
253	0x00000000	0.0
254	0x00000000	0.0
255	0x00000000	0.0

blocks.0.sa.heads.1.key.weight f4 [16, 64]
0	0xbd3c866e	-0.04602664
1	0x3cd52e6f	0.026023118
2	0xbde7b3f7	-0.113136224
3	0xbdf8082d	-0.121109344
4	0x3b8b024b	0.0042422167
5	0x3c3faf73	0.011699545
6	0xbd4817d2	-0.04885084
7	0xbda6f515	-0.081522144
8	0xbcdbbefa	-0.026824463
9	0xbe61fd0f	-0.2206919
10	0x3cad05f5	0.021121005
11	0x3d67c754	0.05658658
12	0x3c8c32ca	0.017114062
13	0x3d087e45	0.033323545
14	0xbe13af06	-0.14422235
15	0x3d5b699e	0.05356752
16	0xbd855f08	-0.065122664
17	0xbe07f298	-0.13276136
18	0xbe0221fe	-0.1270828
19	0x3e21cdcd	0.15801163
20	0x3d76ec95	0.060284216
21	0x3e114d05	0.14189537
22	0x3ddc2e1b	0.107509814
23	0x3e104525	0.14088877
24	0xbe4d7f35	-0.20068057
25	0x3dcfab10	0.101400495
26	0x3e90e484	0.28299344
27	0x3d3e9e6e	0.04653781
28	0x3d1c1a39	0.038110945
29	0x3dd35245	0.10318426
30	0xbc87d0f8	-0.016579136
31	0xbe5026b5	-0.20327266
32	0xbd14d9be	-0.036340468
33	0xbd8eec07	-0.069786124
34	0x3e173df5	0.14769728
35	0x3cd0233b	0.025407424
36	0x3d94af53	0.07260003
37	0xbb6cd626	-0.0036138385
38	0x3d2a5a0e	0.04158979
39	0x3d74d5aa	0.05977408
40	0x3e079371	0.13239838
41	0xbd9a746c	-0.07541737
42	0xbccf19a9	-0.02528079
43	0x3d4036f9	0.046927426
44	0x3c814935	0.015781978
45	0xbd8ad398	-0.067786396
46	0xbda955f3	-0.08268347
47	0xbcfe02aa	-0.03100713
48	0xbd5722da	-0.05252347
49	0xbc9a9409	-0.018869417
50	0xbe14300c	-0.14471453
51	0x3ce54607	0.027987493
52	0x3dc475bb	0.09592768
53	0x3dbf474f	0.09339773
54	0xba8fb5af	-0.001096418
55	0x3d8f1739	0.06986851
56	0xbd3faaad	-0.04679363
57	0xbca0e033	-0.019638157
58	0x3cd69dcb	0.026198288
59	0xbd0e8b0b	-0.03480057
60	0x3ccd7357	0.025079412
61	0x3e07f33f	0.13276385
62	0x3e29620c	0.16541308
63	0x3d1de786	0.038550876
64	0xbd2892c8	-0.041155607
65	0x3d0ee63f	0.03488755
66	0xbd4c29b3	-0.049844455
67	0x3d49e830	0.049293697
68	0x3d6492a2	0.055803902
69	0x3cae8937	0.021305664
70	0x3b302da9	0.0026882684
71	0x3c4e50fd	0.012592551
72	0x3e2a5c9a	0.16636887
73	0xbdab3ded	-0.08361421
74	0x3d49fc87	0.049313094
75	0x3e1efe7d	0.15526767
76	0xbd54ffbf	-0.05200171
77	0xbd8b54f5	-0.06803314
78	0xbe230543	-0.15919976
79	0x3c88acd7	0.016683979
80	0xbe11a487	-0.14222918
81	0xbdb2fbfb	-0.08739468
82	0xbdee720f	-0.11642849
83	0xbd3c3be1	-0.045955542
84	0xbd3d9923	-0.04628862
85	0xba180605	-0.0005799237
86	0xbd851d27	-0.06499701
87	0x3e135660	0.14388418
88	0x3d0db790	0.034598887
89	0x3bbff499	0.0058580157
90	0x3d1c3311	0.03813464
91	0xbe6b3ddb	-0.22972815
92	0xbde38eca	-0.11111219
93	0x3e1b8289	0.15186514
94	0xbe1f20cc	-0.15539855
95	0xbde28756	-0.110609695
96	0x3c0f3e1f	0.008742838
97	0x3e628045	0.22119243
98	0xbe0075c7	-0.12544928
99	0x3d90c38d	0.07068548
100	0xbdd536ae	-0.1041082
101	0xbd1f33c5	-0.03886773
102	0x3daff730	0.08592069
103	0xbdf6e370	-0.12055099
104	0x3e4aa09c	0.1978783
105	0x3e05ea1c	0.13077587
106	0xbd460f14	-0.048354223
107	0x3d3d9e70	0.046293676
108	0x3c0bb8e9	0.008527973
109	0x3d99235b	0.07477447
110	0x3d81045c	0.062996596
111	0x3db74542	0.08948757
112	0x3d3b1441	0.045673613
113	0xbace37e6	-0.0015733212
114	0xbd8e6107	-0.069521
115	0x3e481c55	0.19542058
116	0xbce8ea1f	-0.02843195
117	0xbe104c9a	-0.14091721
118	0xbde05e8e	-0.10955535
119	0x3de6fff4	0.11279288
120	0x3cd39b9e	0.02583104
121	0x3d0fc579	0.035100434
122	0x3d9c7f2c	0.076414436
123	0xbdc4424d	-0.09582958
124	0x3e1d14cb	0.15339963
125	0x3d5ec973	0.054391336
126	0xbdbe661e	-0.09296821
127	0xba4d1247	-0.0007822853
128	0x3e1acdd1	0.15117575
129	0x3db417d7	0.087936096
130	0xbd4c6f2f	-0.04991072
131	0xbdc15bcd	-0.09441338
132	0xbdc5f10a	-0.09665115
133	0xbd773498	-0.06035289
134	0xbc8c11f3	-0.017098403
135	0x3dd95075	0.10611049
136	0xbe019f33	-0.12658386
137	0x3cec0bb6	0.028814178
138	0xbe18658d	-0.14882489
139	0xbd9c5572	-0.07633485
140	0xbd6c9ba5	-0.05776562
141	0x3e304c3b	0.1721658
142	0xbd17402e	-0.03692644
143	0x3d4bf13e	0.049790613
144	0xbd0773a0	-0.033069253
145	0xbd3476d5	-0.04405864
146	0xbd373a07	-0.044733074
147	0xbc74ca3b	-0.014940794
148	0xbdc55a36	-0.09636347
149	0x3e2392da	0.15973988
150	0xbdd096f9	-0.10185046
151	0x3d37a335	0.04483338
152	0xbdf43557	-0.11924236
153	0x3dd73889	0.1050883
154	0x3cd7c440	0.026338696
155	0x3e9a8eb4	0.30187
156	0x3dd74018	0.10510272
157	0x3ce64213	0.028107679
158	0xbd81f922	-0.063463464
159	0xbd752fad	-0.05985992
160	0xbdc140f4	-0.09436217
161	0x3dbcc0d5	0.09216467
162	0xbda5288d	-0.08064375
163	0xbdb918cf	-0.09037935
164	0x3e04a95e	0.12955233
165	0x3ca68501	0.020327093
166	0xbd6edc28	-0.058315426
167	0xbc78800c	-0.0151672475
168	0x3e008fdb	0.12554877
169	0x3d90737a	0.070532754
170	0xbac0ac79	-0.0014699838
171	0x3e263ad9	0.16233386
172	0xbe0349d4	-0.12821132
173	0x3cee6df7	0.02910517
174	0xbb72e6e5	-0.0037063893
175	0xbd115ee3	-0.03549088
176	0xbd58058d	-0.05273967
177	0x3d379519	0.044819925
178	0xbe827e16	-0.2548682
179	0xbd2d5983	-0.042321693
180	0x3cac973f	0.021068214
181	0xbd2f1ec7	-0.04275396
182	0xbc2b73d1	-0.0104646245
183	0x3d2bdf64	0.04196109
184	0x3e10f69d	0.14156576
185	0xbd92d4af	-0.071694724
186	0xbd414fad	-0.047195125
187	0xbe4ab040	-0.19793797
188	0xbd5ce243	-0.053926717
189	0x3d8ae818	0.067825496
190	0xbe0c0d05	-0.13676842
191	0xbd624c74	-0.055248693
192	0xbd78ade3	-0.060712706
193	0x3d6f1ca1	0.058376912
194	0xbc94d2a9	-0.018166857
195	0xbe4a5622	-0.1975942
196	0x3d3cd3da	0.046100475
197	0xbe1791f9	-0.14801778
198	0xbdfa8fd0	-0.12234461
199	0xbe718e12	-0.23589352
200	0x3daac556	0.0833842
201	0x3c04a635	0.0080962675
202	0x3de1159d	0.109904505
203	0x3ddfbe01	0.10924912
204	0x3dd3cc43	0.10341694
205	0xbe4dad22	-0.20085576
206	0xbca3fdc8	-0.020018473
207	0xbdefe2e4	-0.11713198
208	0x3d66e515	0.056370813
209	0x3d4240a5	0.04742493
210	0x3d840b7e	0.064475045
211	0x3c56d2a2	0.013111742
212	0xbd6a059f	-0.057134267
213	0xbd382400	-0.044956207
214	0x3ca1e854	0.019764103
215	0xbe0f0c2e	-0.1396949
216	0x3d410598	0.047124475
217	0x3bc344ec	0.005959144
218	0xbd4e6080	-0.050385
219	0x3e070af4	0.13187772
220	0x3e4a8263	0.19776301
221	0x3d8f8718	0.07008189
222	0xbd3f68a7	-0.046730664
223	0x3d005dbd	0.031339396
224	0xbc63c76d	-0.013902527
225	0xbd904a3e	-0.070454106
226	0x3d4278bf	0.047478434
227	0x3d60a0c9	0.054840837
228	0xbddc07dc	-0.107436866
229	0x3e2b46bf	0.16726206
230	0xbd42205e	-0.04739415
231	0x3dcba749	0.099440165
232	0x3daa2640	0.08308077
233	0xbc5f2ff7	-0.013622276
234	0xbd8a9e5d	-0.06768487
235	0x3dd73e1f	0.105098955
236	0x3e4082ec	0.18799943
237	0xbe25e0a6	-0.16198978
238	0xbc75cd82	-0.01500261
239	0xbdaaa26d	-0.083317615
240	0xbd49f9e8	-0.049310595
241	0xbe1cbe0d	-0.15306874
242	0xbcfc705e	-0.0308153
243	0x3d8df811	0.069320805
244	0x3c9a0b40	0.018804193
245	0xbd05df32	-0.03268356
246	0x3e5db0f1	0.21649529
247	0x3e2f1e13	0.17101316
248	0xbdeac32e	-0.11463009
249	0x3e09e0e7	0.134647
250	0x3d3d0403	0.046146404
251	0x3dbced11	0.09224904
252	0x3d37bd3e	0.04485821
253	0x3da8e4e5	0.08246783
254	0xbc95aca6	-0.018270802
255	0xbd41a4e3	-0.04727639
